Iris/iris_classifier_model.pth (torch, 3709 bytes, 6 tensors)

layer_in_to_h1.weight f4 [8, 4]
000000 62 36 24 3f c1 4a c0 3e cf 4b a9 3e 84 1f 55 3f
       0.6414548 0.37557033 0.3306565 0.83251214
000010 b0 5c e0 bd 38 a2 ce 3d 10 45 79 be 28 58 96 3e
       -0.10955179 0.100895345 -0.24342752 0.29364133
000020 3a 88 ce 3e 9b ec 20 bf bf c5 79 3f f6 b6 38 3f
       0.40338308 -0.6286103 0.9756736 0.72154176
000030 74 e5 45 3f 03 6c 08 3f b4 27 86 be e6 82 50 bf
       0.7730324 0.5328981 -0.26202166 -0.81449735
000040 a4 17 30 3f 02 9d 02 3f dd 71 49 bf a4 9c 18 bf
       0.6878607 0.51020825 -0.78689367 -0.59614015
000050 ac e5 6b be c0 2c 70 bd fc f3 4f be ae d2 a9 3e
       -0.23036832 -0.058636427 -0.20307916 0.33168548
000060 2a 14 ca be 8c 09 6c be 6c 93 10 be fe ec 99 be
       -0.3946851 -0.23050517 -0.14118737 -0.30063623
000070 ff b9 b7 3e 3b 57 d3 be d3 fd 80 3f 49 aa 6a 3e
       0.3588409 -0.4127749 1.0077461 0.22916521

layer_in_to_h1.bias f4 [8]
000000 e8 22 eb 3e c8 69 aa 3d af 00 04 bf 94 71 5f 3f
       0.4592507 0.083209574 -0.51563543 0.8728268
000010 34 39 19 3f b0 d6 ce 3e 00 e3 5f 3d bb 0e 7d bd
       0.5985291 0.4039817 0.054659843 -0.061781626

layer_h1_to_h2.weight f4 [9, 8]
000000 3e 2b 88 3e d8 5a c4 bd 58 03 cc 3d 4e c7 3b 3f
       0.2659549 -0.095876396 0.09961575 0.7335099
000010 5e dc 11 3f fb 45 1e be fe fd 50 3e dd 32 6d 3e
       0.5697688 -0.15456383 0.2040939 0.23163934
000020 1e db 37 3e 16 aa 5c be 4c 31 b3 be a1 e0 0b be
       0.1795468 -0.21549258 -0.34998548 -0.13659908
000030 91 d8 8a be 8d 88 94 3e 94 8e d0 3d 18 f6 15 3e
       -0.27118352 0.2901043 0.101834446 0.14644659
000040 10 1f 70 bd 40 89 c9 bb e2 ce 6d 3f 5a 94 80 bf
       -0.058623374 -0.0061503947 0.92893803 -1.0045273
000050 11 4f 55 bf 1e 1b 77 be 4c 45 df 3d 8f c6 19 3f
       -0.8332377 -0.24131438 0.10901889 0.600686
000060 d6 74 9a 3e f8 da 96 bd 35 a7 3f 3f e1 ec 59 be
       0.30167264 -0.07365984 0.7486451 -0.21281768
000070 aa d4 09 bf a3 ee 57 be 09 d1 a2 3e db 7f 2b 3f
       -0.53840125 -0.21087126 0.31800106 0.66991967
000080 4a 64 b0 3e 16 64 95 be 63 e2 a5 be eb f3 a5 be
       0.34451514 -0.29177922 -0.32399282 -0.32412657
000090 fc e9 a6 be e4 a3 12 3e 26 a3 01 3e fa f3 9c 3e
       -0.3260039 0.14320332 0.12659892 0.3065489
0000a0 49 f7 3a be 58 ce 76 be fe 16 40 3e 70 56 12 be
       -0.18258394 -0.24102151 0.18758771 -0.14290786
0000b0 da ba 5b 3e f4 d2 ab bd 4e 1a 4f 3e 6f a5 8c be
       0.21457997 -0.083898455 0.20224878 -0.27469966
0000c0 e6 b3 36 be 10 c1 dc 3d 50 13 99 3d 20 9c b8 bd
       -0.17842063 0.10779011 0.07474387 -0.090141535
0000d0 da cc 57 3e 02 1e 76 3e 39 45 83 be eb 47 41 be
       0.21074238 0.24034885 -0.2563875 -0.18875091
0000e0 a5 c0 a5 3e c6 53 f4 bd 40 59 00 be 41 27 af be
       0.3237354 -0.11930041 -0.12534046 -0.34209636
0000f0 2a 54 4f be 90 e0 b4 3d 80 25 3f bd 3f 66 83 be
       -0.2024695 0.088318944 -0.046666622 -0.25663945
000100 20 e0 07 3c 4a 4d 77 be 82 93 99 be 75 5c 47 be
       0.008293182 -0.24150577 -0.29995352 -0.19468863
000110 28 6e 9e be 18 86 66 be d3 f2 b4 3e 94 c2 88 3d
       -0.30943418 -0.2251209 0.3534151 0.06677738

layer_h1_to_h2.bias f4 [9]
000000 fb 99 db 3e 7a d5 a8 be bb c4 71 bf fc f0 4e be
       0.42890915 -0.3297537 -0.9444081 -0.20209116
000010 63 35 50 3c 64 48 9f be 22 fe 1b be bd bd 58 be
       0.012708041 -0.31109917 -0.15233663 -0.2116613
000020 00 6c 80 3a
       0.0009797812

layer_h2_to_out.weight f4 [3, 9]
000000 b8 fa 0c 3f 40 39 bd bc 6f 4c 24 bf d6 f0 43 bf
       0.55070066 -0.023098588 -0.6417913 -0.7653936
000010 44 d8 ae be d0 ac e9 bd 36 b4 86 be 4f 19 8f 3e
       -0.34149373 -0.114099145 -0.26309365 0.27948996
000020 1c 7c 87 bd fe 2b 47 3e ec b4 d4 3d 5b fc 97 bf
       -0.06615469 0.19450375 0.103860706 -1.1873888
000030 32 58 13 3f 42 c8 c6 be 8b d7 02 be 56 aa 8d be
       0.5755645 -0.3882466 -0.12777536 -0.27669019
000040 8b ab a9 be 74 51 c3 3d 1f 59 ff be 92 e3 04 3e
       -0.3313869 0.0953702 -0.49872681 0.12977436
000050 ce c5 06 3f de dd 44 3f 8b 9e 0f 3d b8 c1 6b bd
       0.52645576 0.7690104 0.035063308 -0.05755779
000060 a0 96 8e 3d c6 36 30 3e ed c7 89 3e
       0.06962323 0.17208394 0.26910344

layer_h2_to_out.bias f4 [3]
000000 eb b9 4d 3f 0e ae e2 be 6b 54 ab be
       0.80361813 -0.44273418 -0.33462843
